models/soil_conv_lstm.pth (torch, 155363 bytes, 3 tensors)

cell.conv.weight f4 [128, 33, 3, 3]
0	0x3c5fe573	0.013665545
1	0x3de062de	0.109563574
2	0x3de60fa5	0.11233453
3	0x3e18130f	0.1485102
4	0x3e30b682	0.17257121
5	0x3d840598	0.064463794
6	0x3d32c233	0.043642234
7	0x3d38c0ea	0.045105852
8	0x3da1d462	0.07901837
9	0xbc46288b	-0.012094627
10	0x3d0dfdf5	0.03466602
11	0x3a8de44b	0.0010825483
12	0xbdfab54c	-0.12241611
13	0xbdcf13e3	-0.10111215
14	0xbdeaa3ec	-0.11457047
15	0x3d31801a	0.043335058
16	0x3c71b4f2	0.014752613
17	0x3cc71d35	0.02430592
18	0xbdaafeb2	-0.083493605
19	0xbd90e7eb	-0.07075485
20	0xbcbe3356	-0.023217838
21	0xbc536604	-0.01290274
22	0x3be3bef4	0.0069502536
23	0xbd6b99e5	-0.057519812
24	0x3c3a45ca	0.011369178
25	0xbaa08f6c	-0.0012249774
26	0xbd58a056	-0.052887283
27	0x3d5eef16	0.05442723
28	0x3d7768b5	0.06040259
29	0x3d5d4a4d	0.054025937
30	0x3beb05bd	0.007172315
31	0x3d52df1f	0.051482316
32	0x3d1d4c26	0.0384027
33	0x3ce29c7b	0.027662506
34	0x3d8e11cd	0.06936989
35	0x3d09b689	0.033621345
36	0xbd115022	-0.03547681
37	0xbd7b46f3	-0.06134696
38	0x3c3c0f7c	0.011478301
39	0xbcf4915f	-0.029854475
40	0xbdf837d8	-0.12120026
41	0xbdd18864	-0.102310926
42	0x3ce0dc6b	0.027448853
43	0xbd376423	-0.044773232
44	0xbd8f378d	-0.06993017
45	0x3d0c89b7	0.034311023
46	0xbc65c836	-0.014024785
47	0x3d57ef4e	0.052718453
48	0x3d776e67	0.060408022
49	0x3d0e4983	0.034738075
50	0x3aa18b70	0.0012324881
51	0x3d91974e	0.07108937
52	0x3d8d8faa	0.06912167
53	0xbbef4138	-0.007301476
54	0x3d241300	0.040057182
55	0x3db9c14d	0.09070072
56	0x3d9ce4fc	0.07660863
57	0x3d0db55e	0.034596793
58	0x3d5164b9	0.051121447
59	0x3dae2e4e	0.08504926
60	0xbc11cad3	-0.008898455
61	0x3c3b096d	0.0114158215
62	0x3d965d1c	0.07341978
63	0xbc0499c0	-0.0080932975
64	0x3d7a630e	0.061129622
65	0x3b7453e9	0.003728146
66	0xbb161173	-0.0022898584
67	0x3b8a04f7	0.0042120176
68	0x3d7308bd	0.059334505
69	0x3d5fd7f4	0.05464931
70	0x3bdce1a0	0.006740764
71	0x3d6585d4	0.05603583
72	0xbd05a893	-0.032631468
73	0xbc1f4667	-0.009721375
74	0xbd9e9d7b	-0.07744881
75	0xbdacdeab	-0.08440908
76	0xbd524a15	-0.05134018
77	0x3b39acd0	0.0028331764
78	0xbd47f25e	-0.048815124
79	0x3b3dbd68	0.0028952006
80	0xbd479f63	-0.048735987
81	0x3d33f1da	0.04393182
82	0xbc1d1e01	-0.009589673
83	0xbc768270	-0.015045747
84	0xbb066f37	-0.0020513067
85	0x3d944cac	0.072411865
86	0x3d471c02	0.048610695
87	0x3d924276	0.07141583
88	0xbc5a1bc0	-0.01331228
89	0xbcca409a	-0.024689008
90	0xbd496b47	-0.049174573
91	0xbda5fbe0	-0.08104682
92	0xbdcf1ee2	-0.10113312
93	0x3c259058	0.010105215
94	0x3c26f30d	0.010189784
95	0xbdabe2b1	-0.08392847
96	0xbd3f7491	-0.046742026
97	0xbdad8883	-0.08473303
98	0xbd067765	-0.032828707
99	0x3d45131f	0.04811394
100	0x3c20173e	0.009771166
101	0x3dba8f00	0.09109306
102	0x3c30a3b4	0.010781217
103	0xbc24c342	-0.010056319
104	0x3d5afad8	0.05346188
105	0x3c6d5be9	0.014487245
106	0x3c556951	0.013025598
107	0x3d24059d	0.040044416
108	0x3d0b5aca	0.03402213
109	0xbd913b34	-0.0709137
110	0xbd6e28c9	-0.058144365
111	0x3ca08a9e	0.019597348
112	0xbcb73b6f	-0.022367207
113	0x3cdbc712	0.026828323
114	0xbd9d8a7e	-0.07692431
115	0xbda80539	-0.08204121
116	0xbda52fe2	-0.080657735
117	0x3cc8f744	0.024531968
118	0xbb7972d3	-0.0038062825
119	0x3d9c4455	0.07630221
120	0x3d701e37	0.058622565
121	0xbbc4c32a	-0.0060047107
122	0x3d990d41	0.07473231
123	0x3cab5b16	0.020917457
124	0xbc7c39d7	-0.0153946495
125	0x3c3a0f73	0.011356222
126	0xbcb8f694	-0.022578515
127	0xbc4e5dc7	-0.0125956
128	0x3d520088	0.051270038
129	0x3d4ba53d	0.04971813
130	0xbd24e81e	-0.040260427
131	0x3d776a22	0.06040395
132	0x3d28dd14	0.04122646
133	0x3c10622f	0.008812471
134	0x3d68bc3e	0.056820147
135	0xbd365328	-0.044512898
136	0x3cd23df0	0.0256643
137	0xbd54d905	-0.05196478
138	0xbd263c19	-0.040584657
139	0x3b8dbf8e	0.0043258136
140	0x3d2ef35b	0.04271255
141	0x3bf34023	0.007423417
142	0xbd005c51	-0.03133804
143	0x3ce40c17	0.027837796
144	0x3b978ca3	0.0046249195
145	0xbd95b806	-0.0731049
146	0x3cc8b0f2	0.024498437
147	0x3cc0f524	0.023554392
148	0x3d8019a2	0.06254889
149	0x3d810713	0.063001774
150	0x3cc1d4c5	0.023661027
151	0x3c858694	0.016299523
152	0xbc99c61b	-0.018771222
153	0x3ccbf8fd	0.024899
154	0xbc90402e	-0.017608728
155	0x3cc49bc3	0.024000054
156	0x3cc15f77	0.023605091
157	0xbd211b6b	-0.03933279
158	0xbd93206f	-0.071839206
159	0x3c2efad0	0.010679916
160	0x3d429d58	0.047513336
161	0x3c403a29	0.011732616
162	0x3d84763e	0.064678654
163	0x3da72a51	0.08162368
164	0x3c4ea00f	0.012611403
165	0x3dd30046	0.103027865
166	0x3de4dbc9	0.11174733
167	0x3da4d7a6	0.08048944
168	0x3d332b34	0.043742374
169	0xbc1c8713	-0.009553689
170	0x3d000a58	0.031259865
171	0xbd8b84eb	-0.068124615
172	0xbb98fca9	-0.0046687913
173	0x3c133ed7	0.00898715
174	0xbd012e4d	-0.031538296
175	0xbdc1fd07	-0.09472089
176	0xbdcc3dfa	-0.099727586
177	0xbc9120b2	-0.017715786
178	0xbd738fdb	-0.059463363
179	0x3d3ab860	0.04558599
180	0xbd258520	-0.04041016
181	0xbc239873	-0.009985077
182	0xbdafd62b	-0.08585771
183	0xbcccc3cd	-0.024995709
184	0xbd9ff115	-0.078096546
185	0xbb5293e9	-0.0032131618
186	0x3c898a9c	0.016789727
187	0xbce62bae	-0.028097
188	0xbd86d2c3	-0.06583168
189	0x3bf67e3c	0.0075223725
190	0x3c670af0	0.014101729
191	0x3d940215	0.072269596
192	0x3bec3100	0.0072079897
193	0x3d824e5a	0.063626006
194	0x3d80e172	0.06293
195	0x3d9df30b	0.077123724
196	0x3b940020	0.0045166165
197	0x3cfc01a7	0.030762507
198	0xbd74c9f3	-0.059762906
199	0xbcc004d0	-0.023439795
200	0xbd446ff1	-0.04795832
201	0xbdbde157	-0.09271496
202	0xbc92d251	-0.017922552
203	0xbde884d5	-0.11353461
204	0xbdadb267	-0.08481293
205	0x3cc04455	0.023470083
206	0x3c5d70cf	0.013515665
207	0x3c7f01c6	0.015564388
208	0xbda455af	-0.08024155
209	0xbc19d01c	-0.009387996
210	0xbd687062	-0.0567478
211	0xbcfb24c4	-0.03065718
212	0xbcdbb0f9	-0.026817786
213	0xbd3ec0d7	-0.046570625
214	0x3c424bfa	0.011858935
215	0xbd5e2dc3	-0.05424286
216	0x3c310077	0.0108033335
217	0xbd0861f3	-0.033296537
218	0x3cd5a235	0.026078323
219	0xbd998763	-0.07496526
220	0xb8b1771f	-8.462206e-05
221	0xbda25d64	-0.07927969
222	0x3d11c6ea	0.03559009
223	0x3adfe56e	0.0017081925
224	0xbd5991fb	-0.053117733
225	0xbc03b30f	-0.008038296
226	0xbcc0181a	-0.023448993
227	0xbca342b0	-0.01992926
228	0x3d94df2d	0.0726913
229	0xbd30198b	-0.04299311
230	0xbd0e944b	-0.034809392
231	0x3d01df9b	0.031707387
232	0x3c4fbcc6	0.012679284
233	0xbc86443e	-0.016389962
234	0xbc37c5bf	-0.01121658
235	0xbd793fa7	-0.06085172
236	0xbaf982bc	-0.0019036154
237	0xbd2663c4	-0.040622488
238	0x3ce013c8	0.027353182
239	0xbcc849dc	-0.024449281
240	0xba3a953c	-0.00071175746
241	0x3c712976	0.014719358
242	0x3c8ff541	0.017573
243	0xbdafe804	-0.08589175
244	0xbd4be8ac	-0.04978244
245	0xbce91c46	-0.028455865
246	0xbd8dd7e8	-0.069259465
247	0x3c5bd610	0.013417736
248	0xbdc3450b	-0.09534653
249	0xbd5c709b	-0.053818326
250	0xbc3039d0	-0.010755971
251	0xbc36bdeb	-0.011153678
252	0x3c92bd4b	0.017912528
253	0xbc51a578	-0.0127957985
254	0x3d464b5f	0.048411723
255	0x3d5e075d	0.05420624

cell.conv.bias f4 [128]
0	0x3df580c6	0.11987452
1	0x3cc600cc	0.024170302
2	0x3d152da6	0.036420487
3	0x3d84798b	0.06468495
4	0xbcdb73fe	-0.026788708
5	0x3d87ab35	0.06624452
6	0x3da1e5c2	0.07905151
7	0x3c62e44c	0.0138483755
8	0x3d955e78	0.07293409
9	0xbbe12b5f	-0.0068716253
10	0xbd15178d	-0.036399413
11	0x3d853d87	0.06505876
12	0x3d15f0c1	0.036606554
13	0x3d4d49f5	0.05011936
14	0x3d4b141a	0.049579717
15	0x3d258a18	0.0404149
16	0x3d094fdf	0.033523437
17	0x3d8529ba	0.06502099
18	0x3db0fabe	0.08641575
19	0xbce327c3	-0.02772892
20	0x3c76d411	0.015065209
21	0xbd534df5	-0.051588017
22	0x3d0f66e2	0.035010226
23	0x3c4a3026	0.012340581
24	0xbd4576e9	-0.048209105
25	0xbd0f62b9	-0.03500626
26	0x3d58a274	0.052889302
27	0x3ce5cd54	0.02805201
28	0x3c2c3b3f	0.010512172
29	0xbc36b7ca	-0.011152217
30	0x3d0bc7fa	0.03412626
31	0x3d149ed1	0.03628427
32	0x3dfa1c05	0.122123756
33	0x3cc005e1	0.023440303
34	0xbbc6e8fa	-0.0060702534
35	0xbc6ea16b	-0.014564852
36	0x3d8472c1	0.064672
37	0x3d348bd2	0.044078656
38	0x3d943a0b	0.07237633
39	0xbb95f406	-0.004576209
40	0x3d0d7f8c	0.034545466
41	0xbcf5b3eb	-0.029993018
42	0xbce967cf	-0.028491883
43	0x3ca7f2a7	0.020501448
44	0x3d65ab3b	0.0560715
45	0x3b42a291	0.0029698948
46	0x3ca7a33f	0.020463584
47	0xbc056211	-0.008141057
48	0xbc9863bb	-0.018602243
49	0x3d0cc1c7	0.034364488
50	0x3bacab65	0.0052694553
51	0xbd1d3ea6	-0.038389824
52	0xbd55dafc	-0.052210793
53	0x3d0c65a3	0.034276616
54	0xbbe94e00	-0.007119894
55	0xbd12ca51	-0.035837475
56	0xbb9e9c0f	-0.004840381
57	0xbc576304	-0.013146166
58	0xbd2d1cae	-0.04226368
59	0x3cbb31c8	0.022850886
60	0xbc09ca2f	-0.008410021
61	0xbbb57c71	-0.005538516
62	0xbaf1c9d9	-0.0018446996
63	0x3d99a3cd	0.07501946
64	0x3dd82461	0.10553814
65	0x3c40b8fa	0.011762852
66	0x3d000f14	0.03126438
67	0xb9c56d8d	-0.0003765639
68	0x3d44f165	0.048081774
69	0x3d39da99	0.045374487
70	0x3d1d693f	0.03843045
71	0xbc19b280	-0.009380937
72	0x3cbf4db1	0.023352476
73	0x3c4a43ec	0.012345295
74	0x3cb334f6	0.02187584
75	0x3d77d32a	0.060504116
76	0xbb8c8b7f	-0.00428909
77	0xbcc3d7c4	-0.023906596
78	0x3d9aa677	0.07551282
79	0x3c04e34c	0.008110832
80	0x3d6cb5eb	0.057790678
81	0x3d24d275	0.04023977
82	0x3ccdbd51	0.025114687
83	0x3c3103cd	0.010804129
84	0xbba61478	-0.005068358
85	0xbd16e913	-0.03684337
86	0x3ba310a9	0.0049763513
87	0xbd50950a	-0.050923385
88	0xbd0cd865	-0.034386057
89	0xbc874396	-0.01651172
90	0x3d551d78	0.052030057
91	0x3b3f8454	0.002922316
92	0x3cda6701	0.026660444
93	0x3d75ae91	0.059980933
94	0x3d0b9584	0.034078136
95	0xbcbc8a71	-0.023015233
96	0x3c25c8c1	0.010118664
97	0x3ce4ddbf	0.027937768
98	0x3d058e24	0.03260626
99	0x3cf2b4f0	0.029627293
100	0xbcb858ee	-0.022503342
101	0x3bd569cd	0.0065128566
102	0xbd5a515e	-0.053300254
103	0xbc553094	-0.01301207
104	0xbd110f82	-0.03541518
105	0xbcb2215f	-0.021744428
106	0x3b4152c4	0.0029498795
107	0xbba3373e	-0.0049809506
108	0x3bf86fa8	0.00758167
109	0x3d6cfdee	0.057859354
110	0xbd870665	-0.065930165
111	0xbd482188	-0.048860103
112	0x3c152c53	0.009104806
113	0x3cc45b7d	0.023969406
114	0x3c384d53	0.011248904
115	0xbd338354	-0.043826416
116	0x3c0bc461	0.008530707
117	0xbd47ab19	-0.048747156
118	0xbd80b710	-0.062849164
119	0x3cb42d08	0.021994129
120	0x3c98bdbe	0.018645164
121	0xbc75e333	-0.015007782
122	0xbd66a52d	-0.056309868
123	0x3d3e71e9	0.046495352
124	0x3c843016	0.01613621
125	0xbbd82994	-0.0065967534
126	0x3c45c3d8	0.012070619
127	0x3c5b8552	0.013398485

out.weight f4 [1, 32, 1, 1]
0	0xbe317362	-0.17329171
1	0xbe03d4bc	-0.1287412
2	0x3cf0a181	0.029373886
3	0xbd8e6a45	-0.06953863
4	0x3d26f387	0.04075959
5	0x3e2eb225	0.17060144
6	0x3e4f2b0a	0.20231262
7	0xbd8aa58e	-0.06769858
8	0x3d888536	0.06666033
9	0xbd99d101	-0.075105675
10	0x3dff3b11	0.12462438
11	0xbe2fa773	-0.1715372
12	0x3d828f1d	0.06374953
13	0xbe159e81	-0.14611246
14	0x3e153a26	0.14572963
15	0x3da42dd0	0.080165505
16	0xbdb35451	-0.087563165
17	0x3dbffc90	0.09374344
18	0xbddf1583	-0.10892775
19	0xbdaed7c4	-0.08537248
20	0x3e0cd0f3	0.13751583
21	0x3c0651f8	0.008198254
22	0x3cfdff09	0.0310054
23	0xbc334983	-0.0109428195
24	0xbdcb3ff2	-0.09924306
25	0xbd0d7d9d	-0.034543622
26	0xbce8982f	-0.02839288
27	0xbdd0b7ec	-0.1019133
28	0xbe01ca51	-0.12674834
29	0x3e33fa6d	0.17575999
30	0xbdec28e1	-0.115312345
31	0xbdac9260	-0.08426356
