models/soil_conv_lstm-2.pth (torch, 49079 bytes, 3 tensors)

cell.conv.weight f4 [64, 20, 3, 3]
00000000: 50ea 393c e1a5 a13c 62da 40bd d8a6 04bd
00000010: 3c1b b53d 7548 f53c 05b9 f3bc 8e1c 2f3d
00000020: f3bd 933d 8a0f 603d b7dc 103c a7f6 8f3d
00000030: ccea fe3b 57de b7bc aa0d 893d ef27 50bd
00000040: 278c a23c a673 5ebd 1cc9 86bb 0a33 fabc
00000050: 435e 673c 66d9 b5bd 2a1b 01bc 491c 17bd
00000060: 6767 7abd 1f42 8cbd bd28 b0bc a36c 503c
00000070: b4ab c13d 4402 323d ea97 46bd 0a07 773d
00000080: e6ab 62bc 4d67 113c d942 233d 833b 993d
00000090: 46e6 823c f1ca 6dbc 5fa5 d73b 6165 5abd
000000a0: d8bf 493a d83d 383c dddb 743d e712 863c
000000b0: 286a 463d 89cb 853d 857b 59bc ac21 803c
000000c0: 0644 1ebd a833 153d cfb0 8dbd b02a 53bd
000000d0: b8d5 62bc 38f7 acbc b3bf 18bd 450c 9d3c
000000e0: 6631 e9bc b88d 15bd 6b8d a4bd ee5a 3cbd
000000f0: 846b 6dbd 1ba7 243c afd4 263c 282c 5f3c
00000100: 2505 733a af6e 223d 4663 45bd f401 30bd
00000110: de8a 02bd 6c7e 57bd 2b0b 8fbd cf8d 98bd
00000120: a272 6b3d 73d9 8f3d 1415 f1bc 2ea3 e83c
00000130: d440 153d 9881 a6bc 969a 933c 6cc3 a63a
00000140: 7570 a239 9c39 8b3c b95d 5abd fb2a 243d
00000150: 98ae 86bc 357f 3c3c 3ee1 053d b4b5 71bd
00000160: 018a 87bd 80d3 aebd f4a8 883d 4ab6 353c
00000170: f962 8c3d ac0d 22bd ae6f 953d 04aa 1abd
00000180: b4d0 1c3d 31a9 25bd d6a9 00bd 6a5c 513c
00000190: 64ae abbc 3916 983d 1644 4dbb 504c 85bd
000001a0: 6283 47bd f76d 8c3c d241 6fbd e02c afbc
000001b0: f54b 283d aece 46bd c3fb 513d ffe9 403d
000001c0: 16d4 a9bc 113b b6bb e34f 533d 152f a0ba
000001d0: 33fd 3b3d 91f7 36bd f5ad a53d 364b 2abd
000001e0: 111f 833d 6342 ef3b 126c 903c 96d8 05bd
000001f0: 8736 003c d50c f6bc bc2e 8b3d 5c86 333c
00000200: 6e2c 79bc 345d 07bd 1cf0 03bd 94e2 8a3d
00000210: 1d39 ab3d 5283 62bd a541 0abc 7f41 56bd
00000220: e586 f2bc efec 253d 35db 143d 0b8f d3bc
00000230: 5333 8a3d 1f83 913d 0da4 5fbd c3ae 6c3d
00000240: 1c78 82bc 28d1 8bbd 40d1 353d a9b5 c13c
00000250: 98ab 303a ddcd 8fbb aed0 78bb 468c 0e3d
00000260: fe98 1ebd fd9f 9fbb e268 f93c 4cc0 923d
00000270: 432a 023c 610e 573d 7550 d73c 15f1 71bd
00000280: bec2 e8bc 7c66 93bd c419 0fbd 20d9 063d
00000290: ab7a 3c3d e589 4ebd 34e2 9e3d 2a91 46bd
000002a0: c58d 6abd 2bb1 5dbd d1a3 14bd 2e13 273c
000002b0: bcbc eebc a893 b8bc 366f 8cbd ca03 6f3d
000002c0: 1fc7 06bd 2244 70bd bad9 0c3d 3937 a2bd
000002d0: 83b1 303c d596 813d 566d 953d a223 b1bb
000002e0: 48cc 953d b895 31bd 4768 cc3c 51f5 213c
000002f0: d1b8 aa3d 670f 33bd 1983 be3b 6ca0 b0bc
00000300: 7697 86bb 410c 41bd 589a b93c 161d 1cbd
00000310: b60d 8a3d 7015 e839 07cb fcbc 8409 fbbc
00000320: e921 99bc 91fb 7cbc edc6 87bc f700 193c
00000330: e441 ddbc 4ace 18bd 4fd9 58bd 7054 3639
00000340: 4e2e b83d 9b5d bfbb 27c3 813d 6a70 b43d
00000350: bb9c 8d3d 8e84 553c b876 ad3d 0912 e9ba
00000360: 3ab3 a2bd 53c6 583c 5cbd fbbc e0e4 83bc
00000370: 5006 4ebd e091 5f3d 9029 383d 88f6 803c
00000380: 463b 603d f0a9 8abd 9666 163d 28e6 423c
00000390: 0afd adb8 7655 4a3d 1174 c4bc 37ed 303d
000003a0: a109 1d3d b7b6 69bc 1c89 f6bc 6c6d 91bd
000003b0: a476 57bd 6679 65bd eb3e 6d3c 7c4b 853d
000003c0: bdf9 8abd 4371 943d 31ad 9a3c bb14 50bd
000003d0: 616b c4bb 3034 433d f334 c73c 2a83 083d
000003e0: 4a7b 1a3c 9291 393d edf5 60bd d41d dfbc
000003f0: fd1c 56bd 1a45 73bd 438b 7e3d 8ca2 2f39
0.011347368 0.019732418 -0.047083266 -0.032385677 0.08843085 0.029941777 -0.02975131 0.04275184
0.07213964 0.05470232 0.008841685 0.07029467 0.007779455 -0.022444887 0.06692059 -0.050819334
0.01984222 -0.05430951 -0.0041133296 -0.030541915 0.014121595 -0.08879356 -0.007880012 -0.03689221
-0.06113377 -0.06848549 -0.0215038 0.0127212135 0.09456578 0.043459192 -0.04848472 0.060309447
-0.013834929 0.0088747265 0.039858673 0.07482054 0.015978944 -0.014513717 0.006580993 -0.05331934
0.00076961285 0.011245213 0.05977999 0.016366435 0.048441082 0.06532962 -0.013274078 0.015641056
-0.03863909 0.036426216 -0.06918489 -0.05155438 -0.0138449 -0.021113977 -0.037292194 0.01917089
-0.028465938 -0.036512107 -0.08034786 -0.045985155 -0.057963863 0.010049607 0.010182544 0.0136213675
0.0009270481 0.039656337 -0.048190378 -0.042970613 -0.031870715 -0.0526108 -0.06984552 -0.07448923
0.05748237 0.07023897 -0.029428996 0.028398123 0.036438778 -0.020325467 0.018018048 0.0012723035
0.00030982835 0.016995244 -0.053312037 0.040080052 -0.016440675 0.011504938 0.03268551 -0.059011176
-0.06618119 -0.08536434 0.0667285 0.011090824 0.06854815 -0.03956382 0.07296692 -0.037759796
0.038284972 -0.040444557 -0.03141197 0.012778381 -0.02095718 0.07426114 -0.00313211 -0.06508696
-0.04870928 0.01714228 -0.05841238 -0.021383703 0.041088063 -0.04853695 0.05126549 0.047098156
-0.020731013 -0.0055612405 0.051589858 -0.0012221063 0.045895766 -0.04466969 0.0808982 -0.041575633
0.0640241 0.007301615 0.017629657 -0.032677256 0.0078255 -0.030035416 0.06796023 0.010957327
-0.015208347 -0.03304787 -0.032211408 0.067814976 0.08360503 -0.055301018 -0.008438502 -0.052308556
-0.029605338 0.04050916 0.036341865 -0.025825044 0.067480706 0.071050875 -0.05459981 0.057783853
-0.015926413 -0.06827003 0.04438901 0.023646193 0.00067394366 -0.0043885545 -0.003796618 0.034801744
-0.038720123 -0.004871367 0.03044552 0.07165584 0.007944646 0.052503947 0.026283482 -0.059067804
-0.028413173 -0.07197282 -0.03493668 0.03292191 0.046015423 -0.050424475 0.077579886 -0.048478283
-0.05726411 -0.05412404 -0.03628904 0.010197444 -0.02914273 -0.022531345 -0.06857149 0.058353223
-0.03290474 -0.058658727 0.034387328 -0.07920689 0.01078451 0.06327597 0.07296245 -0.005405859
0.07314354 -0.043355674 0.024952067 0.009885148 0.08336032 -0.04371586 0.005813968 -0.02156087
-0.004107411 -0.047130827 0.022656605 -0.038113676 0.067408964 0.0004426646 -0.03085853 -0.030644186
-0.018692927 -0.0154408375 -0.016574347 0.009338609 -0.027008958 -0.037306108 -0.052941617 0.00017388328
0.08993207 -0.005840016 0.063360505 0.08810504 0.069146596 0.013032092 0.084699094 -0.0017781864
-0.07944341 0.013230878 -0.030729942 -0.016100347 -0.05029899 0.054582477 0.044961512 0.015742555
0.054744028 -0.06770694 0.036718927 0.011895694 -8.296415e-05 0.04939791 -0.023981126 0.043194976
0.03833926 -0.014264754 -0.030094676 -0.07100949 -0.05260338 -0.056023978 0.014480333 0.06508538
-0.06785915 0.072481655 0.018881412 -0.05080102 -0.005994246 0.04765719 0.02431724 0.033328213
0.009428808 0.045304842 -0.054922033 -0.027235903 -0.05227374 -0.059392072 0.06214453 0.00016749854

cell.conv.bias f4 [64]
00000000: 9829 473d 5fe8 2ebd d456 23bd 4fd8 36bd
00000010: f6de 44bd 6fe2 2e3d ec6b eabc bb71 8fbc
00000020: 516e 353c 9034 5b3d 2ca9 99bd 591e 7cbd
00000030: 1d05 70bc 2885 6f3d 803c aa3d 0f8f bbbd
00000040: 2602 e2bc d7e3 68bd 8f2c 833d bb14 da3c
00000050: ca0c 30bd ba96 bd3c 8730 3e3d 89ee e23b
00000060: 8762 833d bd29 68bd 00fb 93bd ef77 6dbd
00000070: 82ba 8fbc 7ecb 65bd 8036 bbbb 650f 88bc
00000080: 85d2 683c 8b4c ad3c 32c5 30bd 377c 74bd
00000090: 3865 b9bc 84bc 393d 7e91 843b 1fcc 01bd
000000a0: d825 43bb dd9c 0cbd cb06 58bd 867b c23c
000000b0: 3d25 d1bc d9c3 8bbd d13a 59bd 7c63 d5bc
000000c0: 69cb 0cbd 2f5b f53c b89a b4bc 23a8 833c
000000d0: 464d 433c f975 54bd 49dd f43b fd99 323c
000000e0: da11 3e3d 4bde 12bc e216 143d 2295 ea3c
000000f0: 4dcf 653d 3ea9 2f3d ac2e fb3c ddfa 653c
0.04862365 -0.042702075 -0.039877728 -0.04463988 -0.048064195 0.042696413 -0.028615914 -0.017510286
0.011073665 0.053516924 -0.0750297 -0.06155238 -0.014649657 0.058476597 0.08312321 -0.09158146
-0.027588915 -0.05685791 0.06404983 0.026621213 -0.042980947 0.023143161 0.046432998 0.0069254083
0.06415277 -0.05668043 -0.07225609 -0.057975706 -0.017544989 -0.05610227 -0.005713284 -0.016608903
0.014210348 0.021154663 -0.04315681 -0.059688773 -0.022631273 0.045345798 0.0040456643 -0.031688806
-0.0029777195 -0.034329284 -0.052740853 0.023740541 -0.025530452 -0.06824464 -0.053034607 -0.026048414
-0.034373675 0.029950706 -0.022046432 0.016071385 0.011920279 -0.05187032 0.0074726683 0.0109009715
0.046403743 -0.008964132 0.036154635 0.028635565 0.0561059 0.04288601 0.030661903 0.014036861

out.weight f4 [1, 16, 1, 1]
00000000: 099e 99bd d413 67be 6a07 333d 6171 d4bd
00000010: 0a73 c53d bf8f 56be 8ce8 e7bd bebc 0abe
00000020: 51e8 b3bc f0d9 10bd f27d b2bd afcb 4c3b
00000030: a163 82be 91c5 3fbd 6f86 8a3e 6f2c 413d
-0.07500846 -0.22566158 0.043708242 -0.10373188 0.096410826 -0.20953272 -0.11323652 -0.13548562
-0.021961363 -0.03536409 -0.087154284 0.0031249335 -0.25466636 -0.046819273 0.2705569 0.047161516
